best_model.pth (torch, 348395 bytes, 75 tensors)

tcn.network.0.conv1.bias f4 [60]
0	0x3de686fc	0.11256215
1	0xbe3ba6d5	-0.1832536
2	0xbe7f2d52	-0.24919632
3	0xbe0ea44f	-0.13929866
4	0xbde6743b	-0.11252638
5	0xbdd24bbf	-0.10268354
6	0xbda0d430	-0.078529716
7	0x3de7312c	0.11288676
8	0x3e6596ff	0.22420882
9	0x3e28e38f	0.16493057
10	0xbe01a37e	-0.12660024
11	0x3d8e1e54	0.069393784
12	0x3da8ad37	0.08236163
13	0xbe1d6e24	-0.15374047
14	0x3dd074dd	0.1017854
15	0xbe66e6cc	-0.2254898
16	0xbddfd773	-0.109297656
17	0x3c923e02	0.017851833
18	0x3de86f0b	0.11349305
19	0xbe7bb383	-0.24580197
20	0x3e6b1eea	0.22961012
21	0xbd5bfba4	-0.05370678
22	0xbde734b3	-0.112893485
23	0x3e81d969	0.25361183
24	0xbdc85702	-0.097822204
25	0xbd25a797	-0.04044303
26	0x3d1103bd	0.035403956
27	0x3d3370f4	0.043808892
28	0xbd92349c	-0.07138941
29	0x3e5cd3ce	0.21565172
30	0xbd4622fe	-0.048373215
31	0xbe46671a	-0.19375268
32	0x3e854033	0.26025543
33	0xbd928f17	-0.071561985
34	0xbc31c120	-0.010849267
35	0xbe5a3590	-0.21309495
36	0x3cc1e743	0.023669844
37	0xbdaf1aef	-0.08550059
38	0xbdb1083d	-0.086441495
39	0x3e07251b	0.13197748
40	0xbe12fd02	-0.14354327
41	0x3dcdc926	0.10048132
42	0x3d6f7318	0.05845937
43	0x3e239900	0.15976334
44	0xbd1f72b0	-0.038927734
45	0x3d7bda0c	0.061487243
46	0x3d6b40e7	0.057434943
47	0xbe134244	-0.14380747
48	0xbe1b57ab	-0.15170161
49	0xbd808419	-0.06275196
50	0x3e0d4138	0.1379441
51	0x3d6a36db	0.05718122
52	0x3e3d55a5	0.18489702
53	0x3e346fb2	0.17620733
54	0xbd0c00c8	-0.034180433
55	0x3e52eb44	0.20597559
56	0x3db8bfac	0.090209335
57	0xbdc5dabc	-0.09660861
58	0x3c820df6	0.015875798
59	0xbdbf3af9	-0.0933742

tcn.network.0.conv1.weight_g f4 [60, 1, 1]
0	0x3f0f7b0a	0.5604712
1	0x3f2593ce	0.6467866
2	0x3f0abbcf	0.54192823
3	0x3f0dc94d	0.55385286
4	0x3f25ea90	0.6481104
5	0x3ef6d1f2	0.4820705
6	0x3f1dacfe	0.6159209
7	0x3f221ccc	0.6332519
8	0x3f19cb1e	0.6007556
9	0x3f0c13ff	0.5471801
10	0x3f1f1821	0.6214619
11	0x3f04a778	0.5181804
12	0x3f0b2539	0.5435367
13	0x3f15f54b	0.5857741
14	0x3f1da509	0.6157995
15	0x3f213fb4	0.6298783
16	0x3f1bbc00	0.6083374
17	0x3f1a64aa	0.6030985
18	0x3f164d5b	0.58711785
19	0x3f251fc1	0.6450158
20	0x3f25f35b	0.64824456
21	0x3f09b1f1	0.5378714
22	0x3f15975f	0.584341
23	0x3f15dbf7	0.58538765
24	0x3f12e59f	0.57381624
25	0x3f0411b7	0.5158953
26	0x3f24d714	0.64390683
27	0x3f24b047	0.6433148
28	0x3f1eb528	0.6199517
29	0x3f105017	0.5637221
30	0x3f1d2f3e	0.6140021
31	0x3f207243	0.6267435
32	0x3f05111c	0.5197923
33	0x3f205cb5	0.6264146
34	0x3f081972	0.53163826
35	0x3f04c04e	0.51855934
36	0x3f225338	0.6340823
37	0x3ef1b8cd	0.47211304
38	0x3f12101f	0.5705585
39	0x3f05d1db	0.5227334
40	0x3f193f94	0.5986264
41	0x3f0e5b67	0.5560822
42	0x3f03b9a5	0.51455146
43	0x3f0217ed	0.5081776
44	0x3f330571	0.6993018
45	0x3f2c19db	0.6722695
46	0x3f132cc5	0.5749019
47	0x3f0997f5	0.53747493
48	0x3f34f70c	0.70689464
49	0x3f28efc4	0.65990853
50	0x3f0d0840	0.55090714
51	0x3f0f51cf	0.55984205
52	0x3f1957b6	0.5989946
53	0x3f0d7d22	0.5526906
54	0x3efeb53c	0.49747646
55	0x3f10b955	0.56532794
56	0x3f1cbc00	0.61224365
57	0x3f02965f	0.510107
58	0x3f17546f	0.5911321
59	0x3f31cb78	0.69451094

tcn.network.0.conv1.weight_v f4 [60, 8, 2]
0	0xbc75c66a	-0.015000919
1	0xbe13fd34	-0.14452058
2	0xbdcc3384	-0.09970763
3	0x3df4fc44	0.11962178
4	0x3d68e1d9	0.05685601
5	0xbe20dc12	-0.1570895
6	0xbc874b00	-0.016515255
7	0x3e5c68a1	0.21524288
8	0x3e693793	0.22775106
9	0x3e36b1de	0.17841288
10	0x3d18f510	0.037343085
11	0x3e1d8221	0.15381671
12	0x3e0f9578	0.14021862
13	0x3e29dbde	0.16587779
14	0x3df9b405	0.12192539
15	0xbd258baa	-0.040416397
16	0xbe1c1e40	-0.15245914
17	0x3e59ccf1	0.21269585
18	0x3d0154fb	0.031575184
19	0xbd50f7b8	-0.051017493
20	0x3df62b3b	0.12019964
21	0x3e6b8714	0.23000747
22	0xbe710dd3	-0.2354043
23	0x3d20eaa9	0.03928629
24	0xbdc308b9	-0.09523148
25	0x3e418f4c	0.1890232
26	0x3e6b6c5e	0.22990558
27	0xbe682730	-0.22671199
28	0xbd12e177	-0.03585955
29	0xbe53b39f	-0.20673989
30	0x3d244789	0.040107284
31	0xbe557d4e	-0.20848581
32	0x3e765c17	0.24058567
33	0x3e6d49c8	0.23172677
34	0xbd84e4b0	-0.06488931
35	0xbceba69d	-0.02876597
36	0x3a6e7ef7	0.0009097899
37	0xbc41a223	-0.011818442
38	0xbe31fed2	-0.17382362
39	0xbddaaab9	-0.10677094
40	0x3d0a6b9e	0.033794038
41	0xbdf3000b	-0.118652426
42	0x3e24fa58	0.16111124
43	0xbd2e8fbe	-0.042617552
44	0x3e83d3a1	0.25747398
45	0xbdde8b36	-0.10866396
46	0xbc83106c	-0.015999041
47	0x3e0d9c36	0.13829121
48	0x3e3f9aaf	0.18711351
49	0xbd4ed8c4	-0.050499693
50	0xbdf3b0da	-0.11898966
51	0xbe10068c	-0.14064997
52	0xbc6767de	-0.014123885
53	0xbe1a3e4c	-0.15062827
54	0x3e4079a9	0.1879641
55	0x3e187a97	0.14890514
56	0xbdd56838	-0.10420269
57	0xbdbcf628	-0.09226638
58	0x3c1cd656	0.009572586
59	0x3e709c15	0.2349704
60	0x3e66f2d5	0.2255357
61	0xbd9949b0	-0.07484758
62	0x3d84e871	0.06489647
63	0x3d50cb89	0.050975356
64	0xbe2e823b	-0.17041866
65	0x3e3e507c	0.1858539
66	0x3b98684e	0.004651106
67	0x3e1cf3a7	0.15327321
68	0x3e6d57b8	0.23177993
69	0xbe00bc2a	-0.12571779
70	0xbe479806	-0.19491586
71	0xbdd66617	-0.10468691
72	0x3e348ce1	0.17631866
73	0x3e4c2087	0.19934283
74	0xbe4c1d0d	-0.19932957
75	0xbdc1cfd6	-0.0946347
76	0xbd7fcbe6	-0.062450312
77	0xbe52f8f7	-0.20602785
78	0x3d85ced8	0.06533593
79	0x3e39abbe	0.1813192
80	0x3c6d101b	0.014469172
81	0x3e5cd6ba	0.21566287
82	0xbd24dfa9	-0.04025236
83	0xbd8e2d6a	-0.06942256
84	0xbd4d5310	-0.050128043
85	0x3d9c8b17	0.07643717
86	0x3e33f7e7	0.17575036
87	0xbe314fb4	-0.1731556
88	0xbe09a37a	-0.13441268
89	0x3c34374d	0.010999513
90	0x3d951258	0.072788894
91	0x3d525174	0.05134721
92	0x3a58677d	0.0008255167
93	0xbe13a5b9	-0.14418687
94	0x3e4e1798	0.20126188
95	0xbd25767e	-0.040396206
96	0xbd74440f	-0.05963522
97	0xbe5257fd	-0.20541377
98	0x3e7c5c61	0.24644615
99	0x3e095702	0.13412097
100	0xba7cd50b	-0.0009644783
101	0x3d906bd0	0.070518136
102	0x3e751ecc	0.2393753
103	0x3e33b8e7	0.17551003
104	0xbe3ea650	-0.1861813
105	0xbda63a2b	-0.081165634
106	0x3ddd96f7	0.1081981
107	0xbc2a99c1	-0.010412634
108	0x3e1b3b1f	0.15159272
109	0xbca11a96	-0.019665997
110	0x3d9e5b0b	0.07732209
111	0xbe864777	-0.26226398
112	0xbe86c6df	-0.26323602
113	0xbdb0d6a4	-0.086346895
114	0x3e607508	0.21919644
115	0xbe1fd37f	-0.15608023
116	0xbe29f488	-0.16597188
117	0x3e1ab60f	0.15108512
118	0x3e30caf1	0.17264916
119	0xbe1c61f7	-0.15271746
120	0x3e568fa2	0.20953229
121	0xbe301a1e	-0.17197463
122	0x3e1c54c1	0.15266706
123	0xbd467fa0	-0.048461556
124	0x3cc1fe75	0.023680905
125	0xbdfd8352	-0.12378563
126	0x3d8fa4b9	0.0701384
127	0x3d637867	0.055534746
128	0xbc6438f3	-0.013929593
129	0xbe815d42	-0.25266463
130	0xbe7a3255	-0.24433263
131	0x3d335ad1	0.04378778
132	0xbc90df5d	-0.017684633
133	0x3c006490	0.007836476
134	0xbcee174b	-0.029063841
135	0xbdb5ee69	-0.08883364
136	0x3e553e05	0.2082444
137	0x3d826bfc	0.06368253
138	0xbdd4b94e	-0.103869066
139	0xbe714988	-0.23563206
140	0x3e6afc68	0.22947848
141	0xbe6baf88	-0.23016179
142	0xbb87df10	-0.004146464
143	0xbcc7ce85	-0.024390468
144	0xbcde47d9	-0.027133869
145	0x3e4d0a4c	0.20023459
146	0x3ddd5bb4	0.108085066
147	0xbd86f842	-0.0659032
148	0xbe334233	-0.17505722
149	0x3e3f6173	0.18689518
150	0x3da8bc40	0.08239031
151	0xbe1557fd	-0.14584346
152	0x3e3e6bdc	0.18595833
153	0xbe541b03	-0.20713429
154	0x3e243356	0.16035208
155	0x3dceb0b6	0.10092299
156	0xbd1415b7	-0.03615352
157	0xbe303e01	-0.17211153
158	0x3dab5522	0.08365847
159	0xbcf22f70	-0.029563636
160	0x3e5fa32b	0.21839587
161	0x3e20271d	0.1563992
162	0x3e142d39	0.14470376
163	0x3e4f89c6	0.202674
164	0x3e5db90a	0.21652618
165	0x3e6ee05c	0.23327774
166	0x3e21ba85	0.15793808
167	0x3c8d7bee	0.017271008
168	0x3db827c0	0.08991957
169	0xbe10a7b3	-0.14126472
170	0x3e40e28e	0.18836424
171	0x3d28d05d	0.041214336
172	0xbdb710dc	-0.089387625
173	0xbc308482	-0.01077378
174	0xbd8937e8	-0.067001164
175	0xbe1a122c	-0.15045995
176	0xbe1f0d56	-0.15532431
177	0xbe0f28c8	-0.139804
178	0xbdfa253b	-0.122141324
179	0xbc54bbee	-0.012984259
180	0x3dcfce88	0.101468146
181	0xbe334c73	-0.17509632
182	0xbe4a5bc0	-0.19761562
183	0x3e255af7	0.16147982
184	0xbd28bbbe	-0.04119467
185	0x3be1904a	0.0068836557
186	0xbd3c76a5	-0.046011586
187	0x3cada4ee	0.021196809
188	0xbd83dbb4	-0.064383894
189	0x3e2f054e	0.17091867
190	0xbe23ea64	-0.16007382
191	0xbe08109d	-0.13287587
192	0xbdddafc5	-0.10824541
193	0xbdedbd6d	-0.11608396
194	0xbe539379	-0.20661725
195	0x3e570aba	0.21000186
196	0x3d0d47d2	0.03449232
197	0x3e444ea7	0.19170628
198	0xbd8487a0	-0.06471181
199	0x3e50aa87	0.20377551
200	0x3dae9118	0.08523768
201	0xbd6f5f34	-0.058440402
202	0xbbd3813f	-0.0064546163
203	0xbdec75b3	-0.11545887
204	0x3ce6ce5b	0.02817457
205	0xbdf38b04	-0.118917495
206	0xbe34b65e	-0.17647693
207	0xbc8868f9	-0.016651617
208	0xbe112008	-0.14172375
209	0xbe2849a1	-0.16434337
210	0xbe338ded	-0.17534609
211	0xbdb9ba8f	-0.09068786
212	0x3e0e3e8a	0.13891044
213	0xbe25cb8a	-0.16190925
214	0x3e7a2436	0.24427876
215	0x3d522724	0.05130686
216	0x3e19da8e	0.15024778
217	0xbe0c24eb	-0.13685958
218	0xbdc447c1	-0.095839985
219	0x3d316822	0.0433122
220	0x3e3b9aab	0.1832072
221	0x3e4ad72f	0.19808649
222	0xbe3757b9	-0.17904557
223	0xbdd66a74	-0.10469523
224	0xbe56eb39	-0.20988168
225	0x3d22cf41	0.039748434
226	0xbdf014d0	-0.1172272
227	0xbd14ea01	-0.036355976
228	0x3e32b904	0.1745339
229	0x3da988d7	0.08278053
230	0xbe5ed2b3	-0.21760063
231	0x3e24d99d	0.16098638
232	0xbe62971b	-0.22127955
233	0x3da13034	0.07870522
234	0x3de7ce20	0.11318612
235	0x3e408c39	0.1880349
236	0x3db7a6c2	0.089673534
237	0x3df9e237	0.1220135
238	0x3e6f74e5	0.23384435
239	0xbd3fb0be	-0.046799414
240	0x3de62f0c	0.11239442
241	0xbdec6f4e	-0.11544667
242	0x3d83ddc4	0.06438783
243	0x3deb24e5	0.114816464
244	0xbe67c54e	-0.2263386
245	0xbe48edb9	-0.19621934
246	0xbe145719	-0.1448635
247	0xbc5ec0a4	-0.013595734
248	0x3df8cc24	0.12148312
249	0x3e4c727f	0.19965552
250	0x3e78926e	0.24274608
251	0x3e4126e0	0.18862486
252	0x3d586444	0.052829996
253	0x3e4882a5	0.19581087
254	0x3e07c1d2	0.1325753
255	0xbe54df41	-0.2078829

tcn.network.0.conv2.bias f4 [60]
0	0x3cf159fb	0.029461851
1	0x3d03790a	0.032097854
2	0x3cd9a0d0	0.02656594
3	0xbcec20e6	-0.028824281
4	0x3bfa7fc4	0.0076446254
5	0x3b80d6e5	0.0039318674
6	0x3d63ccad	0.055615116
7	0x3d83ed6c	0.06441769
8	0xbd745237	-0.05964872
9	0xbbb8ca9f	-0.0056393887
10	0xbd87d57e	-0.06632517
11	0x3d008a9d	0.031382192
12	0xbd235789	-0.039878402
13	0xbc97d871	-0.018535824
14	0x3d247b95	0.04015692
15	0xbd36ddc5	-0.04464509
16	0xbd8f97a9	-0.07011349
17	0xbc94c3a5	-0.018159697
18	0x3d3d0939	0.046151374
19	0xbd861aa9	-0.06548054
20	0xbd25d577	-0.04048678
21	0x3d895123	0.06704929
22	0x3d3a2df6	0.045453988
23	0xbc4df175	-0.012569775
24	0xbd052825	-0.032508988
25	0xbd824695	-0.06361119
26	0x3d2d8f89	0.042373214
27	0xbd55b0a3	-0.052170407
28	0x3d7d3cbd	0.061825503
29	0xbcad0923	-0.02112252
30	0xbd4c20f9	-0.049836133
31	0xbd16e19b	-0.036836248
32	0x3da09744	0.07841352
33	0x3cfb8f3b	0.030707946
34	0x3c0c0404	0.008545879
35	0x3d672dd2	0.056440182
36	0x3d590a83	0.05298854
37	0x3d0d7575	0.034535844
38	0x3d7c135d	0.061541904
39	0x3d16f446	0.03685405
40	0xbd1c8a3e	-0.038217776
41	0xbc9224e2	-0.017839853
42	0xbcfca689	-0.030841129
43	0x3c89ce0b	0.016821882
44	0x3da090e3	0.07840135
45	0x3da0544c	0.07828578
46	0x3d97adad	0.07406173
47	0xbdb1bd6b	-0.08678707
48	0xbd2f5178	-0.042802304
49	0x3db8cf76	0.09023945
50	0x3babd256	0.00524358
51	0xbcf21b96	-0.02955417
52	0x3bd16518	0.006390225
53	0xbd82aef9	-0.0638103
54	0xbcbd3779	-0.02309774
55	0xbce2b7d8	-0.027675554
56	0xbc371550	-0.011174515
57	0x3d404438	0.04694006
58	0x3cce9fc1	0.025222661
59	0xbc80873e	-0.015689489

tcn.network.0.conv2.weight_g f4 [60, 1, 1]
0	0x3f11ab0e	0.56901634
1	0x3f0b2358	0.54350805
2	0x3f143a6d	0.5790165
3	0x3f20f8bd	0.62879544
4	0x3f1bcf87	0.60863537
5	0x3f11343b	0.5672032
6	0x3f186c44	0.595402
7	0x3f189fcd	0.59618837
8	0x3f14cc27	0.5812401
9	0x3f151448	0.5823407
10	0x3f13509a	0.57544863
11	0x3f16875c	0.5880029
12	0x3f0e6a81	0.5563126
13	0x3f093b22	0.53605855
14	0x3f219f23	0.6313345
15	0x3f118664	0.5684569
16	0x3f16da46	0.5892681
17	0x3f14825b	0.58011407
18	0x3f1ab190	0.6042719
19	0x3f0bbf46	0.54588735
20	0x3f18dbe0	0.597105
21	0x3f1c47fb	0.61047333
22	0x3f13a2fc	0.5767057
23	0x3f1dc20e	0.6162423
24	0x3f1bb9b0	0.6083021
25	0x3f1325b3	0.574794
26	0x3f184c26	0.59491193
27	0x3f175b78	0.59123945
28	0x3f139942	0.5765573
29	0x3f22c2f3	0.6357872
30	0x3f19da11	0.6009837
31	0x3f1275a2	0.57210743
32	0x3f118722	0.5684682
33	0x3f1496ca	0.58042586
34	0x3f0b00f3	0.54298323
35	0x3f1b947f	0.6077346
36	0x3f11f62b	0.5701625
37	0x3f150699	0.5821319
38	0x3f1db467	0.616034
39	0x3f11cce1	0.56953245
40	0x3f15671a	0.58360445
41	0x3f18ab71	0.596366
42	0x3f156537	0.58357567
43	0x3f148e43	0.58029574
44	0x3f1e7cd1	0.61909205
45	0x3f1da49d	0.61579305
46	0x3f14204c	0.5786178
47	0x3f17e558	0.59334326
48	0x3f07e33e	0.5308112
49	0x3f0ea5ac	0.55721545
50	0x3f104e85	0.5636981
51	0x3f11c7c1	0.56945425
52	0x3f1ffc82	0.6249467
53	0x3f0ab4b7	0.54182
54	0x3f1767bc	0.5914266
55	0x3f2471af	0.6423597
56	0x3f12c646	0.5733379
57	0x3f1610b1	0.5861922
58	0x3f193c8d	0.5985802
59	0x3f103c3d	0.56341916

tcn.network.0.conv2.weight_v f4 [60, 60, 2]
0	0xbc82af07	-0.0159526
1	0xbd1886fe	-0.037238114
2	0xbdad6843	-0.08467152
3	0xba0342d0	-0.0005007209
4	0xbd6b68bf	-0.05747294
5	0xbd441a20	-0.047876477
6	0xbc86ead5	-0.016469399
7	0x3b29f2d4	0.002593209
8	0xbd876a6d	-0.06612096
9	0x3d863110	0.06552327
10	0xbd89633d	-0.06708381
11	0x3ce59743	0.028026229
12	0x3d32ab83	0.043620598
13	0xbd99b0ab	-0.075044
14	0xbd8c8190	-0.068606496
15	0xbd78bb22	-0.06072534
16	0xbd648d5b	-0.05579887
17	0x3c17b0ce	0.009258462
18	0x3b2b9435	0.0026180868
19	0xbd5dd1c3	-0.054155122
20	0x3dcebc43	0.10094502
21	0xbd50cb90	-0.050975382
22	0x3d8f1c77	0.06987851
23	0x3a58d487	0.0008271415
24	0xbbd6464e	-0.0065391427
25	0xbd65168e	-0.055929713
26	0x3d4d49f1	0.050119344
27	0xbc0c923f	-0.00857979
28	0x3b29a0bf	0.0025883166
29	0x3da56102	0.080751434
30	0xbccc9468	-0.02497311
31	0x3c0a01c4	0.0084232725
32	0xbc8028d8	-0.015644476
33	0x3ced231a	0.028947402
34	0x3c89f3ab	0.016839823
35	0x3bfaa993	0.0076496094
36	0x3da88622	0.08228709
37	0x3d613e26	0.05499091
38	0xbdbfa714	-0.093580395
39	0x3db7139b	0.08939286
40	0xbda2e650	-0.07954085
41	0xbd96639e	-0.07343219
42	0xbc72c1a8	-0.014816679
43	0x3bce6a36	0.0062992824
44	0xbdb8de75	-0.09026805
45	0xbd8b6564	-0.06806448
46	0x3c254731	0.010087774
47	0x3d8ad5dd	0.067790724
48	0xbd8b281a	-0.06794758
49	0x3d443317	0.047900286
50	0x3d385f54	0.045012787
51	0x3c97fe17	0.018553777
52	0xbd9ef494	-0.07761493
53	0xbd794349	-0.060855184
54	0x3cf4cfe4	0.029884286
55	0x3cc21b93	0.023694789
56	0x3dbbea83	0.09175589
57	0xbd9a239e	-0.07526325
58	0x3da81d99	0.0820877
59	0xbd54444f	-0.051822957
60	0x3d8fec7d	0.070275284
61	0x3cddc849	0.027073042
62	0x3d149ef9	0.03628442
63	0x3c39c138	0.011337571
64	0xbced313f	-0.028954146
65	0x3d6acfaa	0.05732695
66	0x3da1535e	0.07877229
67	0xbd2d2a51	-0.042276684
68	0xbda42fe3	-0.08016946
69	0xbcb3bbf9	-0.021940218
70	0x3dbffd3a	0.09374471
71	0xbdac1a76	-0.084034845
72	0xbd1d50ce	-0.03840714
73	0x3b025b20	0.001989074
74	0xbd3154ea	-0.04329387
75	0x3cf8e2d8	0.030381605
76	0x3aeb0a37	0.0017932121
77	0xbbd5f40e	-0.0065293377
78	0x3d908ba2	0.07057883
79	0x3d7ec1ae	0.062196426
80	0xbd342a92	-0.04398591
81	0x3d993b53	0.07482018
82	0xbd894c53	-0.06704011
83	0xbd2a780f	-0.041618403
84	0x3b2ac756	0.0026058755
85	0xba8b97b2	-0.0010650067
86	0x3d47b000	0.04875183
87	0x3d57bddd	0.052671302
88	0x3b057492	0.002036367
89	0x3dab16c5	0.08353952
90	0xbd31cb07	-0.043406513
91	0x3d9cde9d	0.076596476
92	0xbd68fd8e	-0.056882434
93	0x3c56127a	0.013065929
94	0x3d6f2c16	0.058391653
95	0xbc3d4cfb	-0.011553998
96	0x3d2e74dc	0.042591915
97	0xbccd292e	-0.02504405
98	0x3da4e937	0.08052295
99	0xbbeae1cf	-0.0071680318
100	0x3d5cd694	0.053915575
101	0x3c50189d	0.012701181
102	0x3c634c45	0.013873165
103	0x3cc5980a	0.02412035
104	0x3d2b934c	0.04188852
105	0xbc272c29	-0.0102034
106	0x3d0e3e16	0.03472718
107	0xbd952a0a	-0.07283409
108	0x3c097dad	0.00839178
109	0xbdc04637	-0.093883924
110	0xbd5162a9	-0.05111948
111	0x3c9ffc20	0.019529402
112	0xbd68d5fd	-0.0568447
113	0x3cb8dce8	0.022566274
114	0x3ca330a4	0.019920655
115	0x3d2aeccb	0.04172973
116	0xbc9fd72f	-0.019511787
117	0x3d43e097	0.047821607
118	0x3c8e34f4	0.017359234
119	0x3d724f9d	0.059157956
120	0x3a8da76c	0.0010807342
121	0xbd38aabc	-0.0450847
122	0xbd84696e	-0.064654216
123	0x3cf6ded5	0.030135551
124	0xbcc8dc2f	-0.024519054
125	0xbd02c07f	-0.03192186
126	0x3d7bb2c5	0.061449785
127	0x3d5cc5b0	0.053899467
128	0x3d4d9c91	0.05019814
129	0xbc48ea88	-0.012262948
130	0x3d547f55	0.051879246
131	0xbd9658be	-0.07341145
132	0x3cd177e4	0.025569864
133	0xbd8214a1	-0.06351591
134	0x3d4cfb62	0.050044425
135	0x3d82097e	0.06349467
136	0x3d935f82	0.07195951
137	0x3dc4df55	0.0961291
138	0x3d9a4fbc	0.075347394
139	0x3d92d4e1	0.0716951
140	0x3d0a68b8	0.033791274
141	0x3d38ae88	0.04508832
142	0x3cbd089d	0.023075396
143	0xbdb0f0a5	-0.08639649
144	0x3d5dbb5f	0.05413377
145	0xbc8e5ecc	-0.017379187
146	0xbd35bcb8	-0.04436943
147	0x3d36fba1	0.044673566
148	0x3c48a931	0.01224737
149	0x3d68ed01	0.05686665
150	0xbda431e5	-0.08017329
151	0x3cc28b0b	0.023747941
152	0x3da6fad5	0.08153311
153	0xbcefee5d	-0.029288465
154	0xbd50c998	-0.050973505
155	0x3d2674e9	0.040638838
156	0x3d1c3374	0.038135007
157	0x3d84cccb	0.06484374
158	0xbbc06873	-0.0058718263
159	0x3d89eda9	0.06734783
160	0x3d6ef540	0.058339357
161	0x3cfbefeb	0.03075405
162	0xbd21ca0b	-0.039499324
163	0xbce56de5	-0.028006503
164	0x3d47e1d5	0.048799355
165	0xbd9e3aff	-0.07726096
166	0xbd2992f4	-0.04139991
167	0xbc3a27eb	-0.011362056
168	0xbd29a4ef	-0.04141706
169	0x3d8479d3	0.064685486
170	0xba43ffdc	-0.00074767857
171	0x3d87eec3	0.06637337
172	0x3ccf6c3d	0.025320167
173	0xbc43fca3	-0.011962089
174	0xbc93032c	-0.017945848
175	0x3d039331	0.032122795
176	0xbd1c88a2	-0.03821624
177	0x3ccaa691	0.024737628
178	0xbdbb28e5	-0.091386594
179	0xbd743fd1	-0.059631173
180	0xbd646d47	-0.055768277
181	0xbc85624c	-0.016282223
182	0x3d902cbf	0.07039785
183	0xbc1e8eb3	-0.009677577
184	0x3d5e7ef1	0.05432028
185	0xbd36fcbe	-0.044674627
186	0xbd329631	-0.043600265
187	0xbbc39475	-0.005968625
188	0x3d9e968a	0.07743557
189	0xb8f5829e	-0.0001170684
190	0x3be8eccd	0.007108307
191	0xbd6b5e8c	-0.057463214
192	0xbd8e496a	-0.06947596
193	0x3d9218a5	0.07133607
194	0x3d902f70	0.07040298
195	0xbce0aaab	-0.02742513
196	0xbce0f1fe	-0.02745914
197	0x3cb2ac91	0.021810802
198	0x3d36b10c	0.04460244
199	0xbd1c8f28	-0.038222462
200	0x3c9acaa5	0.018895457
201	0x3cb6a273	0.022294259
202	0x3d65bcbc	0.056088194
203	0x3d89047c	0.066903085
204	0x3d363f1c	0.04449378
205	0x3d53b594	0.05168684
206	0x3c8a027e	0.016846891
207	0x3bfd8552	0.0077368403
208	0x3c751763	0.014959189
209	0xbd2c02c3	-0.04199482
210	0x3da5f199	0.08102722
211	0x3db9af21	0.09066606
212	0x3ca632a6	0.020287823
213	0x3d7baeb8	0.06144592
214	0xbbd504fa	-0.0065008374
215	0xbda87d0e	-0.08226977
216	0xbd24972b	-0.040183228
217	0x3da6ec5a	0.08150549
218	0xbc15dbf0	-0.0091466755
219	0x3cf679bf	0.03008735
220	0xbb85d3ae	-0.004084072
221	0xbcbb036d	-0.022828782
222	0x3c82937d	0.015939469
223	0xbd0158e5	-0.031578917
224	0xbd814969	-0.0631283
225	0x3c01df7b	0.007926817
226	0x3dae2bd8	0.08504456
227	0xbc702e75	-0.014659514
228	0x3dc2e2fb	0.09515949
229	0x3cf56a2a	0.02995785
230	0x3cef6b48	0.02922596
231	0xbd09f5f7	-0.033681836
232	0xbda3d78a	-0.08000095
233	0xbc58a138	-0.013222031
234	0x3c89a4de	0.016802248
235	0x3cd58232	0.026063059
236	0x3b209799	0.0024504422
237	0x3b3bcb51	0.0028655122
238	0xbcb35f5e	-0.02189606
239	0xbb86a1e9	-0.0041086567
240	0x3bc725e5	0.0060775154
241	0x3d9a6547	0.07538848
242	0xbd0ba5e9	-0.03409377
243	0xbcb0e0ed	-0.021591628
244	0x3db590f0	0.08865535
245	0x3d7084cc	0.058720395
246	0x3d780c5b	0.060558658
247	0xbca2b120	-0.01985985
248	0x3d926cfc	0.07149693
249	0x3d1eef9b	0.038802724
250	0x3d278a16	0.040903173
251	0xbd9f81fe	-0.07788466
252	0x3d5dfa58	0.054193825
253	0x3d967b2f	0.07347714
254	0x3d035f89	0.03207353
255	0xbd742611	-0.059606615

tcn.network.0.net.0.bias f4 [60]
0	0x3de686fc	0.11256215
1	0xbe3ba6d5	-0.1832536
2	0xbe7f2d52	-0.24919632
3	0xbe0ea44f	-0.13929866
4	0xbde6743b	-0.11252638
5	0xbdd24bbf	-0.10268354
6	0xbda0d430	-0.078529716
7	0x3de7312c	0.11288676
8	0x3e6596ff	0.22420882
9	0x3e28e38f	0.16493057
10	0xbe01a37e	-0.12660024
11	0x3d8e1e54	0.069393784
12	0x3da8ad37	0.08236163
13	0xbe1d6e24	-0.15374047
14	0x3dd074dd	0.1017854
15	0xbe66e6cc	-0.2254898
16	0xbddfd773	-0.109297656
17	0x3c923e02	0.017851833
18	0x3de86f0b	0.11349305
19	0xbe7bb383	-0.24580197
20	0x3e6b1eea	0.22961012
21	0xbd5bfba4	-0.05370678
22	0xbde734b3	-0.112893485
23	0x3e81d969	0.25361183
24	0xbdc85702	-0.097822204
25	0xbd25a797	-0.04044303
26	0x3d1103bd	0.035403956
27	0x3d3370f4	0.043808892
28	0xbd92349c	-0.07138941
29	0x3e5cd3ce	0.21565172
30	0xbd4622fe	-0.048373215
31	0xbe46671a	-0.19375268
32	0x3e854033	0.26025543
33	0xbd928f17	-0.071561985
34	0xbc31c120	-0.010849267
35	0xbe5a3590	-0.21309495
36	0x3cc1e743	0.023669844
37	0xbdaf1aef	-0.08550059
38	0xbdb1083d	-0.086441495
39	0x3e07251b	0.13197748
40	0xbe12fd02	-0.14354327
41	0x3dcdc926	0.10048132
42	0x3d6f7318	0.05845937
43	0x3e239900	0.15976334
44	0xbd1f72b0	-0.038927734
45	0x3d7bda0c	0.061487243
46	0x3d6b40e7	0.057434943
47	0xbe134244	-0.14380747
48	0xbe1b57ab	-0.15170161
49	0xbd808419	-0.06275196
50	0x3e0d4138	0.1379441
51	0x3d6a36db	0.05718122
52	0x3e3d55a5	0.18489702
53	0x3e346fb2	0.17620733
54	0xbd0c00c8	-0.034180433
55	0x3e52eb44	0.20597559
56	0x3db8bfac	0.090209335
57	0xbdc5dabc	-0.09660861
58	0x3c820df6	0.015875798
59	0xbdbf3af9	-0.0933742

tcn.network.0.net.0.weight_g f4 [60, 1, 1]
0	0x3f0f7b0a	0.5604712
1	0x3f2593ce	0.6467866
2	0x3f0abbcf	0.54192823
3	0x3f0dc94d	0.55385286
4	0x3f25ea90	0.6481104
5	0x3ef6d1f2	0.4820705
6	0x3f1dacfe	0.6159209
7	0x3f221ccc	0.6332519
8	0x3f19cb1e	0.6007556
9	0x3f0c13ff	0.5471801
10	0x3f1f1821	0.6214619
11	0x3f04a778	0.5181804
12	0x3f0b2539	0.5435367
13	0x3f15f54b	0.5857741
14	0x3f1da509	0.6157995
15	0x3f213fb4	0.6298783
16	0x3f1bbc00	0.6083374
17	0x3f1a64aa	0.6030985
18	0x3f164d5b	0.58711785
19	0x3f251fc1	0.6450158
20	0x3f25f35b	0.64824456
21	0x3f09b1f1	0.5378714
22	0x3f15975f	0.584341
23	0x3f15dbf7	0.58538765
24	0x3f12e59f	0.57381624
25	0x3f0411b7	0.5158953
26	0x3f24d714	0.64390683
27	0x3f24b047	0.6433148
28	0x3f1eb528	0.6199517
29	0x3f105017	0.5637221
30	0x3f1d2f3e	0.6140021
31	0x3f207243	0.6267435
32	0x3f05111c	0.5197923
33	0x3f205cb5	0.6264146
34	0x3f081972	0.53163826
35	0x3f04c04e	0.51855934
36	0x3f225338	0.6340823
37	0x3ef1b8cd	0.47211304
38	0x3f12101f	0.5705585
39	0x3f05d1db	0.5227334
40	0x3f193f94	0.5986264
41	0x3f0e5b67	0.5560822
42	0x3f03b9a5	0.51455146
43	0x3f0217ed	0.5081776
44	0x3f330571	0.6993018
45	0x3f2c19db	0.6722695
46	0x3f132cc5	0.5749019
47	0x3f0997f5	0.53747493
48	0x3f34f70c	0.70689464
49	0x3f28efc4	0.65990853
50	0x3f0d0840	0.55090714
51	0x3f0f51cf	0.55984205
52	0x3f1957b6	0.5989946
53	0x3f0d7d22	0.5526906
54	0x3efeb53c	0.49747646
55	0x3f10b955	0.56532794
56	0x3f1cbc00	0.61224365
57	0x3f02965f	0.510107
58	0x3f17546f	0.5911321
59	0x3f31cb78	0.69451094

tcn.network.0.net.0.weight_v f4 [60, 8, 2]
0	0xbc75c66a	-0.015000919
1	0xbe13fd34	-0.14452058
2	0xbdcc3384	-0.09970763
3	0x3df4fc44	0.11962178
4	0x3d68e1d9	0.05685601
5	0xbe20dc12	-0.1570895
6	0xbc874b00	-0.016515255
7	0x3e5c68a1	0.21524288
8	0x3e693793	0.22775106
9	0x3e36b1de	0.17841288
10	0x3d18f510	0.037343085
11	0x3e1d8221	0.15381671
12	0x3e0f9578	0.14021862
13	0x3e29dbde	0.16587779
14	0x3df9b405	0.12192539
15	0xbd258baa	-0.040416397
16	0xbe1c1e40	-0.15245914
17	0x3e59ccf1	0.21269585
18	0x3d0154fb	0.031575184
19	0xbd50f7b8	-0.051017493
20	0x3df62b3b	0.12019964
21	0x3e6b8714	0.23000747
22	0xbe710dd3	-0.2354043
23	0x3d20eaa9	0.03928629
24	0xbdc308b9	-0.09523148
25	0x3e418f4c	0.1890232
26	0x3e6b6c5e	0.22990558
27	0xbe682730	-0.22671199
28	0xbd12e177	-0.03585955
29	0xbe53b39f	-0.20673989
30	0x3d244789	0.040107284
31	0xbe557d4e	-0.20848581
32	0x3e765c17	0.24058567
33	0x3e6d49c8	0.23172677
34	0xbd84e4b0	-0.06488931
35	0xbceba69d	-0.02876597
36	0x3a6e7ef7	0.0009097899
37	0xbc41a223	-0.011818442
38	0xbe31fed2	-0.17382362
39	0xbddaaab9	-0.10677094
40	0x3d0a6b9e	0.033794038
41	0xbdf3000b	-0.118652426
42	0x3e24fa58	0.16111124
43	0xbd2e8fbe	-0.042617552
44	0x3e83d3a1	0.25747398
45	0xbdde8b36	-0.10866396
46	0xbc83106c	-0.015999041
47	0x3e0d9c36	0.13829121
48	0x3e3f9aaf	0.18711351
49	0xbd4ed8c4	-0.050499693
50	0xbdf3b0da	-0.11898966
51	0xbe10068c	-0.14064997
52	0xbc6767de	-0.014123885
53	0xbe1a3e4c	-0.15062827
54	0x3e4079a9	0.1879641
55	0x3e187a97	0.14890514
56	0xbdd56838	-0.10420269
57	0xbdbcf628	-0.09226638
58	0x3c1cd656	0.009572586
59	0x3e709c15	0.2349704
60	0x3e66f2d5	0.2255357
61	0xbd9949b0	-0.07484758
62	0x3d84e871	0.06489647
63	0x3d50cb89	0.050975356
64	0xbe2e823b	-0.17041866
65	0x3e3e507c	0.1858539
66	0x3b98684e	0.004651106
67	0x3e1cf3a7	0.15327321
68	0x3e6d57b8	0.23177993
69	0xbe00bc2a	-0.12571779
70	0xbe479806	-0.19491586
71	0xbdd66617	-0.10468691
72	0x3e348ce1	0.17631866
73	0x3e4c2087	0.19934283
74	0xbe4c1d0d	-0.19932957
75	0xbdc1cfd6	-0.0946347
76	0xbd7fcbe6	-0.062450312
77	0xbe52f8f7	-0.20602785
78	0x3d85ced8	0.06533593
79	0x3e39abbe	0.1813192
80	0x3c6d101b	0.014469172
81	0x3e5cd6ba	0.21566287
82	0xbd24dfa9	-0.04025236
83	0xbd8e2d6a	-0.06942256
84	0xbd4d5310	-0.050128043
85	0x3d9c8b17	0.07643717
86	0x3e33f7e7	0.17575036
87	0xbe314fb4	-0.1731556
88	0xbe09a37a	-0.13441268
89	0x3c34374d	0.010999513
90	0x3d951258	0.072788894
91	0x3d525174	0.05134721
92	0x3a58677d	0.0008255167
93	0xbe13a5b9	-0.14418687
94	0x3e4e1798	0.20126188
95	0xbd25767e	-0.040396206
96	0xbd74440f	-0.05963522
97	0xbe5257fd	-0.20541377
98	0x3e7c5c61	0.24644615
99	0x3e095702	0.13412097
100	0xba7cd50b	-0.0009644783
101	0x3d906bd0	0.070518136
102	0x3e751ecc	0.2393753
103	0x3e33b8e7	0.17551003
104	0xbe3ea650	-0.1861813
105	0xbda63a2b	-0.081165634
106	0x3ddd96f7	0.1081981
107	0xbc2a99c1	-0.010412634
108	0x3e1b3b1f	0.15159272
109	0xbca11a96	-0.019665997
110	0x3d9e5b0b	0.07732209
111	0xbe864777	-0.26226398
112	0xbe86c6df	-0.26323602
113	0xbdb0d6a4	-0.086346895
114	0x3e607508	0.21919644
115	0xbe1fd37f	-0.15608023
116	0xbe29f488	-0.16597188
117	0x3e1ab60f	0.15108512
118	0x3e30caf1	0.17264916
119	0xbe1c61f7	-0.15271746
120	0x3e568fa2	0.20953229
121	0xbe301a1e	-0.17197463
122	0x3e1c54c1	0.15266706
123	0xbd467fa0	-0.048461556
124	0x3cc1fe75	0.023680905
125	0xbdfd8352	-0.12378563
126	0x3d8fa4b9	0.0701384
127	0x3d637867	0.055534746
128	0xbc6438f3	-0.013929593
129	0xbe815d42	-0.25266463
130	0xbe7a3255	-0.24433263
131	0x3d335ad1	0.04378778
132	0xbc90df5d	-0.017684633
133	0x3c006490	0.007836476
134	0xbcee174b	-0.029063841
135	0xbdb5ee69	-0.08883364
136	0x3e553e05	0.2082444
137	0x3d826bfc	0.06368253
138	0xbdd4b94e	-0.103869066
139	0xbe714988	-0.23563206
140	0x3e6afc68	0.22947848
141	0xbe6baf88	-0.23016179
142	0xbb87df10	-0.004146464
143	0xbcc7ce85	-0.024390468
144	0xbcde47d9	-0.027133869
145	0x3e4d0a4c	0.20023459
146	0x3ddd5bb4	0.108085066
147	0xbd86f842	-0.0659032
148	0xbe334233	-0.17505722
149	0x3e3f6173	0.18689518
150	0x3da8bc40	0.08239031
151	0xbe1557fd	-0.14584346
152	0x3e3e6bdc	0.18595833
153	0xbe541b03	-0.20713429
154	0x3e243356	0.16035208
155	0x3dceb0b6	0.10092299
156	0xbd1415b7	-0.03615352
157	0xbe303e01	-0.17211153
158	0x3dab5522	0.08365847
159	0xbcf22f70	-0.029563636
160	0x3e5fa32b	0.21839587
161	0x3e20271d	0.1563992
162	0x3e142d39	0.14470376
163	0x3e4f89c6	0.202674
164	0x3e5db90a	0.21652618
165	0x3e6ee05c	0.23327774
166	0x3e21ba85	0.15793808
167	0x3c8d7bee	0.017271008
168	0x3db827c0	0.08991957
169	0xbe10a7b3	-0.14126472
170	0x3e40e28e	0.18836424
171	0x3d28d05d	0.041214336
172	0xbdb710dc	-0.089387625
173	0xbc308482	-0.01077378
174	0xbd8937e8	-0.067001164
175	0xbe1a122c	-0.15045995
176	0xbe1f0d56	-0.15532431
177	0xbe0f28c8	-0.139804
178	0xbdfa253b	-0.122141324
179	0xbc54bbee	-0.012984259
180	0x3dcfce88	0.101468146
181	0xbe334c73	-0.17509632
182	0xbe4a5bc0	-0.19761562
183	0x3e255af7	0.16147982
184	0xbd28bbbe	-0.04119467
185	0x3be1904a	0.0068836557
186	0xbd3c76a5	-0.046011586
187	0x3cada4ee	0.021196809
188	0xbd83dbb4	-0.064383894
189	0x3e2f054e	0.17091867
190	0xbe23ea64	-0.16007382
191	0xbe08109d	-0.13287587
192	0xbdddafc5	-0.10824541
193	0xbdedbd6d	-0.11608396
194	0xbe539379	-0.20661725
195	0x3e570aba	0.21000186
196	0x3d0d47d2	0.03449232
197	0x3e444ea7	0.19170628
198	0xbd8487a0	-0.06471181
199	0x3e50aa87	0.20377551
200	0x3dae9118	0.08523768
201	0xbd6f5f34	-0.058440402
202	0xbbd3813f	-0.0064546163
203	0xbdec75b3	-0.11545887
204	0x3ce6ce5b	0.02817457
205	0xbdf38b04	-0.118917495
206	0xbe34b65e	-0.17647693
207	0xbc8868f9	-0.016651617
208	0xbe112008	-0.14172375
209	0xbe2849a1	-0.16434337
210	0xbe338ded	-0.17534609
211	0xbdb9ba8f	-0.09068786
212	0x3e0e3e8a	0.13891044
213	0xbe25cb8a	-0.16190925
214	0x3e7a2436	0.24427876
215	0x3d522724	0.05130686
216	0x3e19da8e	0.15024778
217	0xbe0c24eb	-0.13685958
218	0xbdc447c1	-0.095839985
219	0x3d316822	0.0433122
220	0x3e3b9aab	0.1832072
221	0x3e4ad72f	0.19808649
222	0xbe3757b9	-0.17904557
223	0xbdd66a74	-0.10469523
224	0xbe56eb39	-0.20988168
225	0x3d22cf41	0.039748434
226	0xbdf014d0	-0.1172272
227	0xbd14ea01	-0.036355976
228	0x3e32b904	0.1745339
229	0x3da988d7	0.08278053
230	0xbe5ed2b3	-0.21760063
231	0x3e24d99d	0.16098638
232	0xbe62971b	-0.22127955
233	0x3da13034	0.07870522
234	0x3de7ce20	0.11318612
235	0x3e408c39	0.1880349
236	0x3db7a6c2	0.089673534
237	0x3df9e237	0.1220135
238	0x3e6f74e5	0.23384435
239	0xbd3fb0be	-0.046799414
240	0x3de62f0c	0.11239442
241	0xbdec6f4e	-0.11544667
242	0x3d83ddc4	0.06438783
243	0x3deb24e5	0.114816464
244	0xbe67c54e	-0.2263386
245	0xbe48edb9	-0.19621934
246	0xbe145719	-0.1448635
247	0xbc5ec0a4	-0.013595734
248	0x3df8cc24	0.12148312
249	0x3e4c727f	0.19965552
250	0x3e78926e	0.24274608
251	0x3e4126e0	0.18862486
252	0x3d586444	0.052829996
253	0x3e4882a5	0.19581087
254	0x3e07c1d2	0.1325753
255	0xbe54df41	-0.2078829

tcn.network.0.net.4.bias f4 [60]
0	0x3cf159fb	0.029461851
1	0x3d03790a	0.032097854
2	0x3cd9a0d0	0.02656594
3	0xbcec20e6	-0.028824281
4	0x3bfa7fc4	0.0076446254
5	0x3b80d6e5	0.0039318674
6	0x3d63ccad	0.055615116
7	0x3d83ed6c	0.06441769
8	0xbd745237	-0.05964872
9	0xbbb8ca9f	-0.0056393887
10	0xbd87d57e	-0.06632517
11	0x3d008a9d	0.031382192
12	0xbd235789	-0.039878402
13	0xbc97d871	-0.018535824
14	0x3d247b95	0.04015692
15	0xbd36ddc5	-0.04464509
16	0xbd8f97a9	-0.07011349
17	0xbc94c3a5	-0.018159697
18	0x3d3d0939	0.046151374
19	0xbd861aa9	-0.06548054
20	0xbd25d577	-0.04048678
21	0x3d895123	0.06704929
22	0x3d3a2df6	0.045453988
23	0xbc4df175	-0.012569775
24	0xbd052825	-0.032508988
25	0xbd824695	-0.06361119
26	0x3d2d8f89	0.042373214
27	0xbd55b0a3	-0.052170407
28	0x3d7d3cbd	0.061825503
29	0xbcad0923	-0.02112252
30	0xbd4c20f9	-0.049836133
31	0xbd16e19b	-0.036836248
32	0x3da09744	0.07841352
33	0x3cfb8f3b	0.030707946
34	0x3c0c0404	0.008545879
35	0x3d672dd2	0.056440182
36	0x3d590a83	0.05298854
37	0x3d0d7575	0.034535844
38	0x3d7c135d	0.061541904
39	0x3d16f446	0.03685405
40	0xbd1c8a3e	-0.038217776
41	0xbc9224e2	-0.017839853
42	0xbcfca689	-0.030841129
43	0x3c89ce0b	0.016821882
44	0x3da090e3	0.07840135
45	0x3da0544c	0.07828578
46	0x3d97adad	0.07406173
47	0xbdb1bd6b	-0.08678707
48	0xbd2f5178	-0.042802304
49	0x3db8cf76	0.09023945
50	0x3babd256	0.00524358
51	0xbcf21b96	-0.02955417
52	0x3bd16518	0.006390225
53	0xbd82aef9	-0.0638103
54	0xbcbd3779	-0.02309774
55	0xbce2b7d8	-0.027675554
56	0xbc371550	-0.011174515
57	0x3d404438	0.04694006
58	0x3cce9fc1	0.025222661
59	0xbc80873e	-0.015689489

tcn.network.0.net.4.weight_g f4 [60, 1, 1]
0	0x3f11ab0e	0.56901634
1	0x3f0b2358	0.54350805
2	0x3f143a6d	0.5790165
3	0x3f20f8bd	0.62879544
4	0x3f1bcf87	0.60863537
5	0x3f11343b	0.5672032
6	0x3f186c44	0.595402
7	0x3f189fcd	0.59618837
8	0x3f14cc27	0.5812401
9	0x3f151448	0.5823407
10	0x3f13509a	0.57544863
11	0x3f16875c	0.5880029
12	0x3f0e6a81	0.5563126
13	0x3f093b22	0.53605855
14	0x3f219f23	0.6313345
15	0x3f118664	0.5684569
16	0x3f16da46	0.5892681
17	0x3f14825b	0.58011407
18	0x3f1ab190	0.6042719
19	0x3f0bbf46	0.54588735
20	0x3f18dbe0	0.597105
21	0x3f1c47fb	0.61047333
22	0x3f13a2fc	0.5767057
23	0x3f1dc20e	0.6162423
24	0x3f1bb9b0	0.6083021
25	0x3f1325b3	0.574794
26	0x3f184c26	0.59491193
27	0x3f175b78	0.59123945
28	0x3f139942	0.5765573
29	0x3f22c2f3	0.6357872
30	0x3f19da11	0.6009837
31	0x3f1275a2	0.57210743
32	0x3f118722	0.5684682
33	0x3f1496ca	0.58042586
34	0x3f0b00f3	0.54298323
35	0x3f1b947f	0.6077346
36	0x3f11f62b	0.5701625
37	0x3f150699	0.5821319
38	0x3f1db467	0.616034
39	0x3f11cce1	0.56953245
40	0x3f15671a	0.58360445
41	0x3f18ab71	0.596366
42	0x3f156537	0.58357567
43	0x3f148e43	0.58029574
44	0x3f1e7cd1	0.61909205
45	0x3f1da49d	0.61579305
46	0x3f14204c	0.5786178
47	0x3f17e558	0.59334326
48	0x3f07e33e	0.5308112
49	0x3f0ea5ac	0.55721545
50	0x3f104e85	0.5636981
51	0x3f11c7c1	0.56945425
52	0x3f1ffc82	0.6249467
53	0x3f0ab4b7	0.54182
54	0x3f1767bc	0.5914266
55	0x3f2471af	0.6423597
56	0x3f12c646	0.5733379
57	0x3f1610b1	0.5861922
58	0x3f193c8d	0.5985802
59	0x3f103c3d	0.56341916

tcn.network.0.net.4.weight_v f4 [60, 60, 2]
0	0xbc82af07	-0.0159526
1	0xbd1886fe	-0.037238114
2	0xbdad6843	-0.08467152
3	0xba0342d0	-0.0005007209
4	0xbd6b68bf	-0.05747294
5	0xbd441a20	-0.047876477
6	0xbc86ead5	-0.016469399
7	0x3b29f2d4	0.002593209
8	0xbd876a6d	-0.06612096
9	0x3d863110	0.06552327
10	0xbd89633d	-0.06708381
11	0x3ce59743	0.028026229
12	0x3d32ab83	0.043620598
13	0xbd99b0ab	-0.075044
14	0xbd8c8190	-0.068606496
15	0xbd78bb22	-0.06072534
16	0xbd648d5b	-0.05579887
17	0x3c17b0ce	0.009258462
18	0x3b2b9435	0.0026180868
19	0xbd5dd1c3	-0.054155122
20	0x3dcebc43	0.10094502
21	0xbd50cb90	-0.050975382
22	0x3d8f1c77	0.06987851
23	0x3a58d487	0.0008271415
24	0xbbd6464e	-0.0065391427
25	0xbd65168e	-0.055929713
26	0x3d4d49f1	0.050119344
27	0xbc0c923f	-0.00857979
28	0x3b29a0bf	0.0025883166
29	0x3da56102	0.080751434
30	0xbccc9468	-0.02497311
31	0x3c0a01c4	0.0084232725
32	0xbc8028d8	-0.015644476
33	0x3ced231a	0.028947402
34	0x3c89f3ab	0.016839823
35	0x3bfaa993	0.0076496094
36	0x3da88622	0.08228709
37	0x3d613e26	0.05499091
38	0xbdbfa714	-0.093580395
39	0x3db7139b	0.08939286
40	0xbda2e650	-0.07954085
41	0xbd96639e	-0.07343219
42	0xbc72c1a8	-0.014816679
43	0x3bce6a36	0.0062992824
44	0xbdb8de75	-0.09026805
45	0xbd8b6564	-0.06806448
46	0x3c254731	0.010087774
47	0x3d8ad5dd	0.067790724
48	0xbd8b281a	-0.06794758
49	0x3d443317	0.047900286
50	0x3d385f54	0.045012787
51	0x3c97fe17	0.018553777
52	0xbd9ef494	-0.07761493
53	0xbd794349	-0.060855184
54	0x3cf4cfe4	0.029884286
55	0x3cc21b93	0.023694789
56	0x3dbbea83	0.09175589
57	0xbd9a239e	-0.07526325
58	0x3da81d99	0.0820877
59	0xbd54444f	-0.051822957
60	0x3d8fec7d	0.070275284
61	0x3cddc849	0.027073042
62	0x3d149ef9	0.03628442
63	0x3c39c138	0.011337571
64	0xbced313f	-0.028954146
65	0x3d6acfaa	0.05732695
66	0x3da1535e	0.07877229
67	0xbd2d2a51	-0.042276684
68	0xbda42fe3	-0.08016946
69	0xbcb3bbf9	-0.021940218
70	0x3dbffd3a	0.09374471
71	0xbdac1a76	-0.084034845
72	0xbd1d50ce	-0.03840714
73	0x3b025b20	0.001989074
74	0xbd3154ea	-0.04329387
75	0x3cf8e2d8	0.030381605
76	0x3aeb0a37	0.0017932121
77	0xbbd5f40e	-0.0065293377
78	0x3d908ba2	0.07057883
79	0x3d7ec1ae	0.062196426
80	0xbd342a92	-0.04398591
81	0x3d993b53	0.07482018
82	0xbd894c53	-0.06704011
83	0xbd2a780f	-0.041618403
84	0x3b2ac756	0.0026058755
85	0xba8b97b2	-0.0010650067
86	0x3d47b000	0.04875183
87	0x3d57bddd	0.052671302
88	0x3b057492	0.002036367
89	0x3dab16c5	0.08353952
90	0xbd31cb07	-0.043406513
91	0x3d9cde9d	0.076596476
92	0xbd68fd8e	-0.056882434
93	0x3c56127a	0.013065929
94	0x3d6f2c16	0.058391653
95	0xbc3d4cfb	-0.011553998
96	0x3d2e74dc	0.042591915
97	0xbccd292e	-0.02504405
98	0x3da4e937	0.08052295
99	0xbbeae1cf	-0.0071680318
100	0x3d5cd694	0.053915575
101	0x3c50189d	0.012701181
102	0x3c634c45	0.013873165
103	0x3cc5980a	0.02412035
104	0x3d2b934c	0.04188852
105	0xbc272c29	-0.0102034
106	0x3d0e3e16	0.03472718
107	0xbd952a0a	-0.07283409
108	0x3c097dad	0.00839178
109	0xbdc04637	-0.093883924
110	0xbd5162a9	-0.05111948
111	0x3c9ffc20	0.019529402
112	0xbd68d5fd	-0.0568447
113	0x3cb8dce8	0.022566274
114	0x3ca330a4	0.019920655
115	0x3d2aeccb	0.04172973
116	0xbc9fd72f	-0.019511787
117	0x3d43e097	0.047821607
118	0x3c8e34f4	0.017359234
119	0x3d724f9d	0.059157956
120	0x3a8da76c	0.0010807342
121	0xbd38aabc	-0.0450847
122	0xbd84696e	-0.064654216
123	0x3cf6ded5	0.030135551
124	0xbcc8dc2f	-0.024519054
125	0xbd02c07f	-0.03192186
126	0x3d7bb2c5	0.061449785
127	0x3d5cc5b0	0.053899467
128	0x3d4d9c91	0.05019814
129	0xbc48ea88	-0.012262948
130	0x3d547f55	0.051879246
131	0xbd9658be	-0.07341145
132	0x3cd177e4	0.025569864
133	0xbd8214a1	-0.06351591
134	0x3d4cfb62	0.050044425
135	0x3d82097e	0.06349467
136	0x3d935f82	0.07195951
137	0x3dc4df55	0.0961291
138	0x3d9a4fbc	0.075347394
139	0x3d92d4e1	0.0716951
140	0x3d0a68b8	0.033791274
141	0x3d38ae88	0.04508832
142	0x3cbd089d	0.023075396
143	0xbdb0f0a5	-0.08639649
144	0x3d5dbb5f	0.05413377
145	0xbc8e5ecc	-0.017379187
146	0xbd35bcb8	-0.04436943
147	0x3d36fba1	0.044673566
148	0x3c48a931	0.01224737
149	0x3d68ed01	0.05686665
150	0xbda431e5	-0.08017329
151	0x3cc28b0b	0.023747941
152	0x3da6fad5	0.08153311
153	0xbcefee5d	-0.029288465
154	0xbd50c998	-0.050973505
155	0x3d2674e9	0.040638838
156	0x3d1c3374	0.038135007
157	0x3d84cccb	0.06484374
158	0xbbc06873	-0.0058718263
159	0x3d89eda9	0.06734783
160	0x3d6ef540	0.058339357
161	0x3cfbefeb	0.03075405
162	0xbd21ca0b	-0.039499324
163	0xbce56de5	-0.028006503
164	0x3d47e1d5	0.048799355
165	0xbd9e3aff	-0.07726096
166	0xbd2992f4	-0.04139991
167	0xbc3a27eb	-0.011362056
168	0xbd29a4ef	-0.04141706
169	0x3d8479d3	0.064685486
170	0xba43ffdc	-0.00074767857
171	0x3d87eec3	0.06637337
172	0x3ccf6c3d	0.025320167
173	0xbc43fca3	-0.011962089
174	0xbc93032c	-0.017945848
175	0x3d039331	0.032122795
176	0xbd1c88a2	-0.03821624
177	0x3ccaa691	0.024737628
178	0xbdbb28e5	-0.091386594
179	0xbd743fd1	-0.059631173
180	0xbd646d47	-0.055768277
181	0xbc85624c	-0.016282223
182	0x3d902cbf	0.07039785
183	0xbc1e8eb3	-0.009677577
184	0x3d5e7ef1	0.05432028
185	0xbd36fcbe	-0.044674627
186	0xbd329631	-0.043600265
187	0xbbc39475	-0.005968625
188	0x3d9e968a	0.07743557
189	0xb8f5829e	-0.0001170684
190	0x3be8eccd	0.007108307
191	0xbd6b5e8c	-0.057463214
192	0xbd8e496a	-0.06947596
193	0x3d9218a5	0.07133607
194	0x3d902f70	0.07040298
195	0xbce0aaab	-0.02742513
196	0xbce0f1fe	-0.02745914
197	0x3cb2ac91	0.021810802
198	0x3d36b10c	0.04460244
199	0xbd1c8f28	-0.038222462
200	0x3c9acaa5	0.018895457
201	0x3cb6a273	0.022294259
202	0x3d65bcbc	0.056088194
203	0x3d89047c	0.066903085
204	0x3d363f1c	0.04449378
205	0x3d53b594	0.05168684
206	0x3c8a027e	0.016846891
207	0x3bfd8552	0.0077368403
208	0x3c751763	0.014959189
209	0xbd2c02c3	-0.04199482
210	0x3da5f199	0.08102722
211	0x3db9af21	0.09066606
212	0x3ca632a6	0.020287823
213	0x3d7baeb8	0.06144592
214	0xbbd504fa	-0.0065008374
215	0xbda87d0e	-0.08226977
216	0xbd24972b	-0.040183228
217	0x3da6ec5a	0.08150549
218	0xbc15dbf0	-0.0091466755
219	0x3cf679bf	0.03008735
220	0xbb85d3ae	-0.004084072
221	0xbcbb036d	-0.022828782
222	0x3c82937d	0.015939469
223	0xbd0158e5	-0.031578917
224	0xbd814969	-0.0631283
225	0x3c01df7b	0.007926817
226	0x3dae2bd8	0.08504456
227	0xbc702e75	-0.014659514
228	0x3dc2e2fb	0.09515949
229	0x3cf56a2a	0.02995785
230	0x3cef6b48	0.02922596
231	0xbd09f5f7	-0.033681836
232	0xbda3d78a	-0.08000095
233	0xbc58a138	-0.013222031
234	0x3c89a4de	0.016802248
235	0x3cd58232	0.026063059
236	0x3b209799	0.0024504422
237	0x3b3bcb51	0.0028655122
238	0xbcb35f5e	-0.02189606
239	0xbb86a1e9	-0.0041086567
240	0x3bc725e5	0.0060775154
241	0x3d9a6547	0.07538848
242	0xbd0ba5e9	-0.03409377
243	0xbcb0e0ed	-0.021591628
244	0x3db590f0	0.08865535
245	0x3d7084cc	0.058720395
246	0x3d780c5b	0.060558658
247	0xbca2b120	-0.01985985
248	0x3d926cfc	0.07149693
249	0x3d1eef9b	0.038802724
250	0x3d278a16	0.040903173
251	0xbd9f81fe	-0.07788466
252	0x3d5dfa58	0.054193825
253	0x3d967b2f	0.07347714
254	0x3d035f89	0.03207353
255	0xbd742611	-0.059606615

tcn.network.0.downsample.weight f4 [60, 8, 1]
0	0x3c27efe5	0.010250066
1	0x3c74155c	0.014897671
2	0x3b5121ad	0.0031910941
3	0xbca1502f	-0.019691555
4	0x3c5d03bb	0.013489659
5	0x3b810017	0.0039367783
6	0xbacde23c	-0.0015707682
7	0xbbd197d7	-0.0063962745
8	0xbd045b6e	-0.032313757
9	0x3ab78a99	0.0014003097
10	0x3b09f3cb	0.0021049853
11	0x3c1a8964	0.009432171
12	0xbbe05b6f	-0.0068468372
13	0xbc282c38	-0.010264449
14	0x3bf052e5	0.0073341005
15	0x3b8a2edf	0.0042170133
16	0x3b0e21bf	0.0021687595
17	0x3ae615ed	0.0017554142
18	0x39e834d7	0.00044289857
19	0x3b751f8c	0.0037402837
20	0x3c94f91e	0.018185195
21	0xbcacab6a	-0.02107783
22	0xbc662924	-0.014047895
23	0x3b605a45	0.0034233492
24	0x3b67fd4b	0.0035398777
25	0xbb7f68b4	-0.003897232
26	0x3d13b085	0.036057014
27	0xbbfcf0e9	-0.0077191484
28	0x3c2b8065	0.010467623
29	0xbbe35145	-0.0069371783
30	0xbc347ca2	-0.011016043
31	0xbb4ae972	-0.0030961898
32	0xbc933b32	-0.017972562
33	0xbcae0416	-0.021242183
34	0x3bc20150	0.0059205666
35	0xbc892575	-0.016741494
36	0xbc70649a	-0.014672423
37	0xbcbcfc94	-0.023069657
38	0x3b34eb4f	0.0027606075
39	0x3c5e9a09	0.0135865295
40	0x3b2e3049	0.0026579073
41	0xbb275df1	-0.0025538171
42	0xbc2fe7d5	-0.010736425
43	0xba185ff6	-0.0005812639
44	0x3a210eca	0.00061438663
45	0xbc784c85	-0.015154962
46	0x3a682f01	0.0008857102
47	0xbd04527e	-0.032305233
48	0x3c24a20d	0.010048402
49	0x3c4c4ee2	0.012469979
50	0xbc8e104e	-0.017341759
51	0xbafe1e6b	-0.0019387727
52	0xbaccd186	-0.0015626408
53	0xbc8d60cb	-0.017258069
54	0xbbae61d6	-0.0053217215
55	0xbb35a2dc	-0.002771548
56	0xbca30a00	-0.01990223
57	0x3bea26f5	0.0071457573
58	0x3cad721d	0.021172578
59	0xbc517ed3	-0.012786585
60	0xbba9bf35	-0.0051802644
61	0x3c71157e	0.014714597
62	0x3c499764	0.012304161
63	0x3cfefa6d	0.031125272
64	0x3c10c4b8	0.008835964
65	0xbb3e0040	-0.0028991848
66	0xbcab3481	-0.02089906
67	0xbc9af190	-0.018914014
68	0x3b132b8a	0.0022456371
69	0x3c3974c6	0.011319345
70	0xbb53824c	-0.0032273708
71	0xbce79a62	-0.028271858
72	0xbce62e3c	-0.028098218
73	0x3c358244	0.011078421
74	0xbb8e1960	-0.004336521
75	0xbc7c104f	-0.015384748
76	0x3cc76f29	0.024344997
77	0xbc77cfcf	-0.015125229
78	0x3d2291e2	0.039689906
79	0x3b651e68	0.003496075
80	0x3c0e17df	0.0086726835
81	0xbc2c3916	-0.010511657
82	0xbc7f9c2a	-0.015601197
83	0x3bdb9b9f	0.006701901
84	0x3c395499	0.011311674
85	0xbb894cf5	-0.004190082
86	0xbb4f3468	-0.003161693
87	0xbc3d35ff	-0.011548518
88	0xbc0e14c5	-0.008671944
89	0x3c3364f9	0.010949367
90	0xbcc440b0	-0.023956627
91	0x3b5ac0cd	0.0033379078
92	0xbc30abc7	-0.010783142
93	0x3b7383ce	0.003715742
94	0xbb68ea89	-0.0035540184
95	0xbca2ab46	-0.01985706
96	0xbab1c845	-0.0013563713
97	0xbbe4dc20	-0.0069842488
98	0x3c760a09	0.015017041
99	0xbb80cc31	-0.0039305915
100	0xbbf9ea36	-0.007626797
101	0xb9929265	-0.00027956362
102	0xbc5d5c1e	-0.013510732
103	0xbbdaf8b1	-0.0066824784
104	0x3d0272a4	0.03184761
105	0xbc7be2ec	-0.015373927
106	0xbcc6cd4c	-0.024267815
107	0x3b20738a	0.002448293
108	0xbaf887ef	-0.001896141
109	0x3bb491bc	0.005510537
110	0x3c201e0b	0.009772788
111	0xbbec0db3	-0.0072037815
112	0x3cb5c46a	0.022188384
113	0xbc3cf7ad	-0.01153366
114	0xbcd37083	-0.025810486
115	0x3b041229	0.0020152426
116	0xbcfa741d	-0.030572945
117	0x3c17a2e1	0.009255142
118	0x3b849653	0.0040462404
119	0xbc5c00be	-0.013427911
120	0xbc4f3eb8	-0.012649231
121	0x39ac5c9d	0.000328754
122	0x3c8424f3	0.0161309
123	0xbc4495e7	-0.01199863
124	0xbb781cef	-0.0037859043
125	0xbbd455d0	-0.006479956
126	0x3c3916fd	0.011296985
127	0x3caa0da7	0.020758463
128	0x3c98c9b5	0.018650869
129	0x3c57b5a3	0.013165864
130	0xbc368547	-0.011140174
131	0xbbc51e4c	-0.0060155746
132	0xbcaecce0	-0.021337926
133	0x3c9bad77	0.019003613
134	0xbb689508	-0.003548922
135	0x3b1c2015	0.0023822833
136	0x3c5a5d44	0.0133279
137	0xbcb0fd09	-0.021605032
138	0xbc36d072	-0.011158096
139	0x3b9e3faf	0.004829369
140	0x3bc09471	0.0058770706
141	0x3c61414c	0.013748478
142	0xbc437675	-0.011930098
143	0xbc2041bc	-0.009781297
144	0x3c095898	0.008382939
145	0xb55bad00	-8.1835606e-07
146	0xbc4566c7	-0.01204843
147	0xbcb86b15	-0.022511998
148	0xbcf33f4f	-0.029693274
149	0x3c80ab93	0.015706813
150	0xbbe72d6b	-0.007054975
151	0xbc2d73a7	-0.010586656
152	0x3b06251c	0.0020468896
153	0xbbedf56d	-0.007261923
154	0x3cade30b	0.021226427
155	0x3bdfcef6	0.0068300916
156	0x398b1d6f	0.00026534076
157	0x3b919808	0.0044431724
158	0xba9d04eb	-0.0011979615
159	0x3cbf489e	0.023350056
160	0xba81d16a	-0.0009904329
161	0x3b145925	0.0022636142
162	0x3b58ea32	0.0033098576
163	0x3b915e2e	0.004436276
164	0xbc2a7332	-0.010403441
165	0x3be272d4	0.0069106612
166	0xbb309657	-0.0026945078
167	0xbcdcd060	-0.02695483
168	0xbcbd845d	-0.023134405
169	0x3b38f7a7	0.0028223784
170	0xbb0943e1	-0.0020945
171	0x3c5d2749	0.013498136
172	0x3c6790ca	0.0141336415
173	0xbc60bcc9	-0.013716885
174	0xbc92b7aa	-0.017909843
175	0xbc6996ae	-0.014257116
176	0xbb8edff4	-0.0043601934
177	0xbbdce631	-0.006741308
178	0x3b0d6f31	0.0021581168
179	0xbb780f10	-0.0037850775
180	0xbc00b4a7	-0.007855571
181	0xbb795160	-0.0038042888
182	0x3c7b56f7	0.015340558
183	0x3c8f5bb3	0.01749978
184	0xbaae8060	-0.0013313405
185	0xbc356ccb	-0.011073302
186	0xbb862267	-0.0040934565
187	0xbc824b19	-0.01590495
188	0xbc2b53bf	-0.010456978
189	0x3bb32f4d	0.005468285
190	0xbbe70c9c	-0.0070510637
191	0x3ac14fe1	0.0014748537
192	0xbca08cd0	-0.019598395
193	0x3bd9840b	0.006638055
194	0x3c91db64	0.017804809
195	0xbb4863f8	-0.0030577164
196	0xbb3224f4	-0.002718267
197	0xbc2fae44	-0.0107227005
198	0xbb12258d	-0.0022300214
199	0x3cc4dee1	0.024032058
200	0xba78ccb0	-0.000949095
201	0x3c3cf9e4	0.011534188
202	0xbbe648e8	-0.007027734
203	0xbbbccd47	-0.0057617757
204	0xbb86724e	-0.0041029816
205	0xbc01dcf0	-0.007926211
206	0xbb15a7dc	-0.0022835648
207	0x3b91225e	0.0044291457
208	0xbb05a8d7	-0.0020394826
209	0x3cd0920d	0.025460267
210	0xbb0ac194	-0.002117251
211	0xbc3e00e3	-0.011596891
212	0x39ecba8a	0.0004515241
213	0xbc223f29	-0.009902754
214	0x3c77260d	0.015084756
215	0x3b86efc0	0.004117936
216	0xbcf1f71e	-0.02953678
217	0xbc2c412e	-0.010513587
218	0x3cd83659	0.026393102
219	0xbc53a89e	-0.012918619
220	0xbbe0977b	-0.0068539954
221	0xbce1f888	-0.02758433
222	0x3ad95f14	0.0016584122
223	0x3b88c314	0.0041736457
224	0xbc9ae1ba	-0.018906463
225	0x3be59013	0.0070057004
226	0x3cafb542	0.021448735
227	0x3c6011e2	0.013676139
228	0x3ad94c94	0.0016578608
229	0xbc166ac1	-0.009180726
230	0x3c86af3e	0.016440984
231	0x3cb50b3e	0.022100087
232	0xbbe1ec1c	-0.0068946015
233	0x3c66ed64	0.014094684
234	0xbc5ae90a	-0.013361225
235	0x3c499511	0.012303607
236	0x3a6ae863	0.000896102
237	0xba9efd16	-0.0012129869
238	0xbcc4bf9c	-0.024017148
239	0xbc8aa187	-0.016922725
240	0xbc305574	-0.010762561
241	0x3bafdbbd	0.005366771
242	0xbc818079	-0.01580833
243	0xbc74ec62	-0.014948936
244	0xbbc162f4	-0.0059016887
245	0x3b8b5a88	0.0042527355
246	0x3bc6f139	0.0060712365
247	0xbb985b2a	-0.0046495395
248	0x3a55a588	0.0008149971
249	0x3b15b665	0.0022844311
250	0x3cc3d761	0.023906412
251	0xbc6daf56	-0.014507135
252	0xbba52053	-0.0050392537
253	0xbc4623a3	-0.012093457
254	0x3c879d93	0.01655463
255	0x3c3e6acb	0.011622141

tcn.network.0.downsample.bias f4 [60]
0	0xbba227a2	-0.0049485723
1	0x3e100310	0.14063668
2	0xbd400e89	-0.04688886
3	0xbe9fbbdf	-0.31198022
4	0x3c8a0a57	0.016850634
5	0xbe844ba0	-0.25838947
6	0x3c4d8a32	0.012545155
7	0xbdfabfdc	-0.122436255
8	0x3e808530	0.25101614
9	0x3d86931a	0.06571026
10	0x3d8c3cf5	0.06847564
11	0xbe2c4c80	-0.16826057
12	0xbe6eb4b8	-0.23311126
13	0xbeae3905	-0.34027877
14	0xbe481284	-0.19538313
15	0x3deb604b	0.11492976
16	0x3ca0e5ac	0.019640766
17	0x3e32b657	0.1745237
18	0x3ea9e3bf	0.3318157
19	0x3e08c23e	0.13355348
20	0xbc01fbfc	-0.007933613
21	0xbe533047	-0.20623885
22	0x3dff0eab	0.124539696
23	0x3eaf1b33	0.3420044
24	0x3cb57dd2	0.022154722
25	0xbeac9925	-0.3371059
26	0x3e0d34b4	0.13789636
27	0x3df2cb6d	0.11855207
28	0x3e5a8c56	0.21342596
29	0xbe65890a	-0.22415558
30	0xbe5d464d	-0.21608849
31	0xbdcad6d4	-0.099042565
32	0x3e1466ca	0.14492336
33	0xbe806959	-0.25080374
34	0x3e374a6b	0.17899482
35	0xbe8f7b88	-0.28023934
36	0x3da51366	0.080603406
37	0x3e87340d	0.264069
38	0x3e2a037f	0.16602896
39	0x3e75385b	0.23947279
40	0xbdef6f21	-0.11691118
41	0xbdeb796c	-0.11497769
42	0x3eb54259	0.35402182
43	0xbe5e4a5a	-0.2170805
44	0x3bee1ca4	0.007266598
45	0xbe86c05d	-0.26318637
46	0x3eaab365	0.33339992
47	0x3e7966a8	0.24355567
48	0x3ea0e51e	0.31424803
49	0x3e834a3c	0.25642574
50	0xbe2f3b3c	-0.1711244
51	0xbea89a3e	-0.32930177
52	0x3e82164e	0.25407642
53	0xbc803fbe	-0.015655395
54	0xbd5005e6	-0.050786875
55	0x3e92e4c1	0.2869015
56	0xbea289e3	-0.31745824
57	0xbdd5ba77	-0.10435956
58	0x3df91d19	0.12163753
59	0x3e88e630	0.2673812

tcn.network.1.conv1.bias f4 [60]
0	0xbd356c44	-0.044292703
1	0x3cc7b401	0.024377825
2	0x3dc05873	0.0939187
3	0x3d2c1f70	0.04202217
4	0xbc9c7a5c	-0.019101314
5	0x3bdb73ef	0.00669717
6	0xbca5cd33	-0.020239448
7	0xbd5302d7	-0.05151638
8	0x3d845a09	0.06462485
9	0x3da21129	0.07913429
10	0xbd4ecdbb	-0.05048917
11	0x3ca7de1c	0.020491652
12	0x3d7eecfb	0.06223772
13	0x3d657563	0.05602015
14	0x3d407c04	0.04699327
15	0xbb8cd8d9	-0.004298311
16	0xbbc3a0f2	-0.005970114
17	0x3d3a3828	0.04546371
18	0xbd63d6a1	-0.055624608
19	0x3d271034	0.040786937
20	0xbd9f4dad	-0.07778487
21	0xbd44d482	-0.048054226
22	0x3dac85a7	0.0842393
23	0xbca7badd	-0.020474846
24	0x3dd15526	0.10221319
25	0xbd64bb31	-0.055842582
26	0xbd952ae4	-0.07283571
27	0xbbd55a1c	-0.006510986
28	0x3ce9f26d	0.02855798
29	0xbd4e7af1	-0.050410215
30	0xbd85616e	-0.06512724
31	0xbc7041f7	-0.014664165
32	0x3d663d00	0.056210518
33	0xbca94544	-0.020662911
34	0x3ca999eb	0.020703277
35	0xbd03652b	-0.032078903
36	0x3dbfdc36	0.09368174
37	0x3ac5b260	0.0015083067
38	0x3b227860	0.0024790987
39	0x3cd976a2	0.026545826
40	0x3dd4c650	0.103893876
41	0x3d0becb0	0.03416127
42	0x3b9c263b	0.0047652996
43	0xbb367c5b	-0.0027845118
44	0xbd82d7f2	-0.063888445
45	0xbd131a9e	-0.035914056
46	0x3d304057	0.04303011
47	0x3d7c7dcd	0.06164341
48	0x3cb309a9	0.021855192
49	0xbca084cb	-0.01959457
50	0xbd94e6e7	-0.072706036
51	0x3d729aa9	0.059229527
52	0x3d878b71	0.06618393
53	0xbd0f0148	-0.03491333
54	0x3d99956b	0.07499202
55	0x3cf8cca6	0.030371021
56	0xbc86e7c2	-0.016467933
57	0xbd837afc	-0.06419942
58	0xbda71ffe	-0.08160399
59	0x3db7071c	0.08936903
